Pytorch-Learning/net.pkl (torch_old, 8019 bytes, 3 tensors)

weight f4 [10, 1]
-0.17277694 0.26977527 0.6291238 -0.25152135 0.7930375 0.24230418 -1.1010096 1.0554768
-0.53591245 -0.56257117
00000000: 70ec 30be fc1f 8a3e 420e 213f 68c7 80be
00000010: 8104 4b3f 961e 783e e2ed 8cbf dd19 873f
00000020: 8f31 09bf aa04 10bf

bias f4 [10]
-0.82368565 -0.5183885 -0.12505738 -0.68242884 -0.1326093 -0.24310055 -0.2747892 -0.60653585
-0.24082695 -0.09631916
00000000: 10dd 52bf 1cb5 04bf 0b0f 00be a8b3 2ebf
00000010: bbca 07be 5aef 78be 2cb1 8cbe ef45 1bbf
00000020: 579b 76be fb42 c5bd

weight f4 [1, 10]
-0.031929225 -0.4923811 0.54391533 -0.6339637 0.72494334 -0.10518589 0.7674377 0.30083883
0.2373212 0.422742
00000000: 38c8 02bd 6019 fcbe 093e 0b3f 724b 22bf
00000010: e395 393f b36b d7bd cc76 443f 8c07 9a3e
00000020: 5404 733e a471 d83e
